examples/nxp/models/microspeech_lstm/microspeech_lstm_best.pth (torch, 433811 bytes, 6 tensors)

lstm.weight_ih_l0 f4 [512, 80]
00000000: d63b e4bb 9cd0 923c 899f 4ebb 4c64 a2bd
00000010: 8424 9dbc c3de 593a 40a3 b6bd c5f4 a03d
00000020: 40e9 2abc 0f6e 733d 04c2 50bd 0607 24bd
00000030: 7f94 c6bd 6a9e cebd 7112 1fbc 3e3b 41bd
00000040: ee27 193d 9324 933d 8d5b 8ebd 401f 05bc
00000050: 89ab 8b3c aa17 313c 84d7 163d 8b8d 9bbd
00000060: d001 f8bb 9651 0fbd 2838 383d fb7f e4bc
00000070: c91e 8e3a e32e dc3b 29d8 58bd a9a0 a63d
00000080: f108 2bbd 274b 9f3d 32d8 d13d c8b8 77bd
00000090: cf8b 70bd 5068 a5bc d1d9 9d3d 4c57 6e3a
000000a0: bbec eb3c 0dec a63d dc2b 833d 5c66 0b3e
000000b0: a38b 043d 9d79 3dbc 9564 9a3c 1703 abbc
000000c0: b0fd fe3c 9ae6 363d fc4e fd3d 6234 653d
000000d0: 1d07 543d 961c b5bc 2d90 89bb 3ca1 f93b
000000e0: d2e1 17bc 6a3b 113d 8e87 613d c42f db3b
000000f0: dd0d 133d a7c7 d03d 30f1 4a3d 52ed b83d
00000100: 0e67 61bc e3cd a8ba 524b 893d 3d5f 903d
00000110: f5a7 be3d d18c 203d 2d06 dcbc 7613 e83d
00000120: eea6 1c3d 7abe a93d 0e30 e93b d451 693c
00000130: f4ef 123d b2cc af3c e778 7c3b 31e3 bfbc
00000140: 9bad 663d eb4c 61bd c82b abbc cc95 c5bc
00000150: aa45 ddbd 55d4 f0bd 52db 8abd 5ade 423d
00000160: b9fb 6dbd 1bed 74bd a035 15bd 1352 0abe
00000170: c788 82bc 4806 04be 4b5f 03bd eb6a 813d
00000180: 408c ab3c 133c 90bd 2507 383d b1ff 1e3d
00000190: 4804 7cbc 22da e03c 46ba 043d 245b febd
000001a0: 558d 9ebd c54f fabd c462 7a3d fa46 b2bb
000001b0: a570 07be cca9 cebd 0913 97bd 5be2 cebd
000001c0: 2c58 3e3c a5b1 03bd ac57 913c 1979 a7bc
000001d0: 40e2 4a3d 1011 583c 5d1a adbd 1069 7cbd
000001e0: 4613 0c3d 68f6 943d 3f27 ba3d 90ae 0c3e
000001f0: fadf 283e f460 c43c b59b 6d3d e6d0 4d3d
00000200: 13a9 3b3d 4be5 713c a83c 1e3d 448b 9e3d
00000210: c79c a3bd 9921 9ebd 5130 6dbd a45f 783b
00000220: e75d 9e3b a106 933d 9bde c8bc 7e2d 2fbc
00000230: 6397 c03d 51cb 1b3e 46ca 303e 8e84 433d
00000240: 5ad6 083d 74a9 ed3d b3b8 1f3d 650c d63c
00000250: d750 033e 5c92 733c 13cd 413c 4d46 733d
00000260: 2599 023d cd90 82bc e0b1 923d ca35 3f3d
00000270: c05b 0cbc f192 423d f68b c9bc 0feb 26bc
00000280: 8094 983d ba8d a0bb ff78 a63c 35bf 2abc
00000290: 86a9 0b3e bd5b bc3d dcdc 923d 8380 01bd
000002a0: 692e b63d 1407 973d 6bf7 bfbc 5111 08bd
000002b0: e64c 8d38 afc2 4d3d 2e62 b13c 5035 f43d
000002c0: 7b0c 793c 2fc3 a23c 5ffe 6f3d e7ab d23d
000002d0: 0046 743d fb22 1f3c 84cd 493d c365 ff3c
000002e0: 44f7 823d a7f1 263c 6cbb 39bc 97e6 b5bc
000002f0: 756f 0d3e c77a 4ebc 3606 e73c eb11 0abd
00000300: 6df9 84bd 8cc6 f0bc ebbd 8a3d 8295 f33d
00000310: 243e b7bc 39a2 26bd ad97 4bbd 3160 63bd
00000320: 7cba e8bd 4da0 d3bc e432 753d 51bf 8b3d
00000330: 78db 753d ec97 28bd 8ea4 903d 7ef8 6abd
00000340: fc4b 8d3d 35aa 073c 71d0 e33b 0377 29bd
00000350: 12d3 f1bc 7c9b 80bb a812 77bd 1b6e 8e3c
00000360: 124c 8e3d bf49 5a3d 76d7 2c3d 3b6e a33d
00000370: b0d1 073d 190a 32bc f7cc 53bd 87d6 f0bd
00000380: 626b a6bd 5169 9f3d 8960 b7bd 5133 87bd
00000390: b694 8dbc 0236 863c a70a 8fbc c38d 5fbd
000003a0: bf96 a63d 52af 883d 1955 a4bd 875c 1dbc
000003b0: 5317 a6bd 0f67 46bd e9ea c23c ca69 39bd
000003c0: 4e0a be3c 53ac c53c a9fc c8bb 5311 1abd
000003d0: 968f 1e3d fdf5 b93d 7741 813d d773 dc3b
000003e0: 3c43 d73d 1abb 8a3d 2557 f23d 8d6f 7e3b
000003f0: e083 3f3d bc83 1dbd efad 653d fd61 fbbc
-0.006965141 0.017921738 -0.0031528196 -0.07929286 -0.019182451 0.0008311087 -0.08917856 0.07859186
-0.010431588 0.059431132 -0.050966278 -0.04004576 -0.09696292 -0.10088809 -0.009708987 -0.04717564
0.037391596 0.0718471 -0.06951056 -0.008125126 0.017049568 0.010808865 0.036826625 -0.075953566
-0.0075685754 -0.034989916 0.04497543 -0.027893057 0.0010842915 0.0067194565 -0.05294052 0.08136112
-0.041756574 0.07778006 0.10246314 -0.060478956 -0.058727082 -0.020191342 0.07707561 0.0009091988
0.028799405 0.08150492 0.0640485 0.13613266 0.03235973 -0.011564639 0.01884679 -0.020875497
0.031126827 0.044653513 0.12368581 0.05595816 0.051764596 -0.022108357 -0.0041980953 0.0076180976
-0.009270148 0.035457052 0.055060916 0.0066890437 0.035901893 0.10194331 0.04954642 0.0902964
-0.01375748 -0.0012878742 0.06703819 0.07049415 0.09309379 0.039196793 -0.026858414 0.11331837
0.038245134 0.08288284 0.0071163243 0.014240701 0.03587337 0.021459911 0.0038524212 -0.023423763
0.056317907 -0.055004995 -0.0208949 -0.02411928 -0.10804303 -0.11759249 -0.06780113 0.047575332
-0.05810139 -0.059796434 -0.036428094 -0.13507871 -0.015934361 -0.12893021 -0.0320733 0.06319221
0.0209409 -0.07042708 0.04492869 0.038818065 -0.01538188 0.027447764 0.032404207 -0.124197274
-0.07741801 -0.12222246 0.061129346 -0.00544059 -0.13226564 -0.1009098 -0.073766775 -0.10101768
0.0116177015 -0.032151837 0.017742 -0.020443486 0.049532175 0.013187662 -0.08452294 -0.061623633
0.034198068 0.07273561 0.09089517 0.13738465 0.1649169 0.023972012 0.058009822 0.05024805
0.04581554 0.01476414 0.038632065 0.077414066 -0.07988887 -0.07721252 -0.057907406 0.0037898803
0.0048329714 0.07178999 -0.024520209 -0.0106919985 0.09403875 0.15214278 0.17264661 0.047733836
0.033407547 0.11604586 0.038994502 0.026128957 0.12823807 0.014866438 0.011828679 0.059393216
0.03188433 -0.015938187 0.07162833 0.046682157 -0.008566797 0.047503415 -0.024602871 -0.010187878
0.07450199 -0.0048997076 0.020321367 -0.010421564 0.13638887 0.09197185 0.07171032 -0.0316167
0.08895571 0.07374397 -0.023433408 -0.03321964 6.7377274e-05 0.050234493 0.021653261 0.11924231
0.0152007295 0.019868461 0.058592197 0.10286694 0.05963707 0.00971293 0.04926826 0.031176453
0.063948184 0.01018945 -0.011336189 -0.02220468 0.13812049 -0.012602515 0.028201204 -0.033708494
-0.06492887 -0.02939155 0.06774505 0.11893751 -0.022368498 -0.04068205 -0.049705196 -0.055511657
-0.11363694 -0.025833273 0.059862986 0.068236 0.060023755 -0.04116051 0.07062636 -0.057365887
0.068992585 0.008280327 0.0069523384 -0.041373264 -0.029519591 -0.003924785 -0.060320526 0.017386487
0.06948103 0.053292986 0.042197667 0.07980009 0.033158958 -0.010866665 -0.05170914 -0.11759668
-0.081259504 0.077837594 -0.089539595 -0.06601585 -0.017282825 0.016383175 -0.017461134 -0.054578554
0.08134221 0.06674065 -0.080240436 -0.00960458 -0.081099175 -0.048438128 0.023793655 -0.045266904
0.023198273 0.024130022 -0.006133635 -0.037614178 0.038711153 0.09080122 0.063113146 0.0067276764
0.10510871 0.06773968 0.11833028 0.0038823814 0.046756625 -0.03845571 0.05607408 -0.030686373

lstm.weight_hh_l0 f4 [512, 128]
00000000: afdf 363d 2451 51bd 5897 efbd 5d05 8dbd
00000010: 3f22 323c 910a 5abd 0227 273c 161f 843c
00000020: 90ba d1bb 7186 e53d 61f3 8d3d 864d f03d
00000030: ecb4 0b3d 8eb1 393d 5273 c43d d1a6 173d
00000040: 5aa9 853d 46bc d2ba 9f2c 9d3d 02a5 5abb
00000050: d042 a83c 6895 ab3d 7d5b 9f3d 9e19 123d
00000060: f46c c5bc cba8 68bd 9133 203d c5e6 15ba
00000070: 3bbf bd3c 553d 8abd c695 733d 0df0 553d
00000080: 88ac d0bd bef9 aa3d fc2e bfbd ae30 3fbb
00000090: 1150 9fbd c1e2 303e 0924 cd3c 59b6 c0bd
000000a0: 83b8 fcbb 83c8 8f3d 4fcb b0bc 3b26 30bd
000000b0: 459d 7cbd 63ad b4bd aa37 013d f75f 923e
000000c0: 9cd6 593d cd6f 193c d7ce 1e3d b76d 22bc
000000d0: df7c ff3c e882 56bd 6c09 5b3d c00f 08be
000000e0: ae16 a33d 93e7 7a3d b984 95bd 10e9 25bd
000000f0: 9f04 143e 8061 93bd 6ff5 9e3c 56d4 8fbd
00000100: 7572 613c 30d6 30bd 61df 773d b4c0 4b3d
00000110: 5fb9 f5bc 8865 4e3d defe cdbd a460 a33d
00000120: 5481 48bd 00d8 6f3c e7f1 6e3d 2a98 dc3b
00000130: ffb7 f33d 9fd7 ba3b 45db f33c 9279 8f3d
00000140: ccd2 46bc ca15 31bd b6e2 03bd 1fdf 94bd
00000150: e959 24bd 9300 923d 9e76 09bc b413 a13d
00000160: 6c15 76bd 4f3a 11bd dbbd 4d3b 19c6 a5bd
00000170: 263d 14bd 6473 73bd be09 8b3d acf9 c13c
00000180: 3810 2a3c dcb6 53bd 27e7 88bb 3e5c 7b3b
00000190: 6a06 683d 94a9 a9bd b0f6 bcbc 5958 8f3d
000001a0: 4253 0a3e d805 ca3d d11f 4dbc 526c ae3c
000001b0: 004b 28bc 2df8 893d 763b 81bc e136 02be
000001c0: 5955 173d 0eb5 ae3d a7ce 2f3e 9160 bbbc
000001d0: 1b99 5ebd 23df a7bd 70a4 843d 7326 743d
000001e0: 4b1c ddbd 0bb8 acbd c66f 75bd 04f2 1f3e
000001f0: e57f 3e3c 2ff1 4fbc b68e d5bb ede0 0abd
00000200: 457a 553c 6c14 c23c ec10 70bd 0602 39bb
00000210: 3659 08bd 0293 d23d bcbe 1abd e1af 36bd
00000220: 4bea 793d f517 a13d a428 dbbc 7543 a2bd
00000230: b8b5 40bd 3f4d 97ba a7ce 873d 7728 223b
00000240: 9f3c 12bd 6874 e2bb f784 ff3c 803a f13c
00000250: 4ebf 9cbd 4c6e 53bd 3611 a8bd 76cc f63c
00000260: b8fa e03c 34a7 7bbd be66 683d 79a0 04be
00000270: 561f 553d 1e1f 623d 68e3 a3bd 22f0 be3d
00000280: 1918 2f3d a659 913d 6b82 babd ad55 acbd
00000290: a0db 2bbd be8e 59bd b676 2b3c 4d1a e23c
000002a0: 6bb1 e63d 56d1 7abd f261 bfbc abba d5bd
000002b0: a4e3 a13c 7cfb 7e3b dd2d b0bd a0bb 14bd
000002c0: 9918 c7bd d4ee b53d ce3c e23d eaa7 08bd
000002d0: a5b3 ac3d 5113 183d 8cba c4bd 4a24 89bd
000002e0: f60c 57bb 35ad c83c 101f 43bd 8072 aabd
000002f0: f4b5 063d 2a07 30bd 6c76 e93b db4c 9f3c
00000300: bc79 3a3c e1d0 583d 3366 dfbd b470 7e3d
00000310: 5583 2fbd c9cb bc3c bace eb3c 91bd 4d3c
00000320: bd27 253c ebd0 8abd 3e2d 083d 6d1c 8c3d
00000330: 735e 843d 0b14 243c 1301 0b39 3b62 823d
00000340: 3984 2fbd bb1b d83d 0dcb 983d 5b83 aa3d
00000350: eb35 10bd b684 a9b9 4bcd 893d d740 18bb
00000360: 5a55 8e3d e98e fcbd 3fd0 58bd 5c72 d23c
00000370: 399d e23c 00ff 33bd d7b6 d33d 3f0d f13d
00000380: 7c31 d73d 1021 dfbc f703 f5bd ff5c d0bc
00000390: b8dc bfbd 8861 723d e0a3 0ebe 69aa e33d
000003a0: d9ec 6d3d 2256 74bd c678 093b 5db6 e53d
000003b0: a84f 9e3d 36cf 45bc eb41 d4bb 166f ab3d
000003c0: ad78 233d 1b83 adbc 4776 ed3d 8c0b 283c
000003d0: cbc3 dabc cdf3 e33c 6360 dd3d 0117 0a3d
000003e0: d6bb 06bd 3e88 04bd d5e4 213c ea3c d1bc
000003f0: 2daf 44bc b782 813d 3f80 823d df8d 6dbd
0.044646915 -0.051102772 -0.116987884 -0.068857886 0.010872423 -0.053232733 0.010202171 0.016128104
-0.006400414 0.11207283 0.069311865 0.117335364 0.034108087 0.045335345 0.09592308 0.037024323
0.06526442 -0.0016077838 0.076745264 -0.0033362512 0.020539671 0.08378106 0.07781122 0.03566896
-0.024099804 -0.0568016 0.039111678 -0.0005718286 0.023162475 -0.067499794 0.059469007 0.052230883
-0.10189158 0.08348416 -0.093351334 -0.0029173302 -0.07778943 0.17274 0.025041597 -0.0940978
-0.007712425 0.070206665 -0.02158132 -0.04300521 -0.06167342 -0.088221334 0.031547226 0.2858884
0.053183183 0.009365034 0.038771477 -0.009913853 0.031187473 -0.052370936 0.053475782 -0.13287258
0.0796331 0.061256003 -0.073007055 -0.04050547 0.14454888 -0.07196331 0.019404141 -0.07022922
0.013760199 -0.043173015 0.060515765 0.049744323 -0.029995618 0.050389796 -0.10058378 0.07977417
-0.048951462 0.014638901 0.058336165 0.0067320066 0.11900329 0.0057019736 0.029767642 0.070056096
-0.012135219 -0.04323367 -0.03219863 -0.072691195 -0.040124808 0.07129016 -0.008390097 0.07865086
-0.060079023 -0.035455998 0.003139368 -0.08094425 -0.03619113 -0.059436217 0.067889675 0.023678623
0.010379843 -0.05168806 -0.004177946 0.0038354541 0.056646742 -0.082842976 -0.023066849 0.06999273
0.13508323 0.09864396 -0.012519793 0.021291886 -0.010271788 0.06736789 -0.015775423 -0.12716247
0.03694663 0.08530627 0.17168675 -0.022873195 -0.05434523 -0.08196857 0.064766765 0.05960698
-0.10796412 -0.08433541 -0.05992105 0.15619665 0.011627172 -0.01269178 -0.0065172566 -0.033905912
0.01302964 0.023691379 -0.058609888 -0.0028229966 -0.033288203 0.10281946 -0.037779555 -0.044601325
0.061014455 0.078658976 -0.026752777 -0.07923023 -0.0470483 -0.0011543407 0.06631213 0.0024743357
-0.035702344 -0.0069108494 0.031191332 0.02944684 -0.07653676 -0.05161886 -0.08206408 0.030126791
0.027463302 -0.061438754 0.056738608 -0.1295184 0.052031837 0.055205457 -0.08002359 0.093231454
0.04274759 0.07097177 -0.091069065 -0.08414779 -0.041957498 -0.053114645 0.010465315 0.027600432
0.112643085 -0.061234795 -0.023362134 -0.10435995 0.019761868 0.003890722 -0.08602498 -0.036311746
-0.097214885 0.088834435 0.11046754 -0.03336326 0.08432702 0.037127797 -0.096058935 -0.06696375
-0.0032814122 0.024496654 -0.047637045 -0.083226204 0.032888368 -0.042975582 0.0071247127 0.019445827
0.011381563 0.052933577 -0.10908165 0.0621192 -0.042849857 0.023046391 0.028785098 0.012557403
0.010080275 -0.06778129 0.03324627 0.06841359 0.06463327 0.010014544 0.00013256473 0.06366392
-0.042850707 0.10552164 0.07460604 0.08325835 -0.03520767 -0.0003233307 0.0672861 -0.0023232007
0.06949873 -0.123319454 -0.052932974 0.025689296 0.02766286 -0.04394436 0.10337608 0.117701046
0.10507485 -0.027237445 -0.11963647 -0.025434969 -0.09368271 0.059175044 -0.13929701 0.111164875
0.058087204 -0.059652455 0.0020976528 0.11216424 0.07730037 -0.012073329 -0.0064775846 0.08370797
0.039910007 -0.02118068 0.11594825 0.010256659 -0.02670469 0.027826214 0.108094 0.033713344
-0.032893978 -0.032356493 0.009881218 -0.025541741 -0.012004656 0.0632376 0.06372117 -0.057996627

lstm.bias_ih_l0 f4 [512]
00000000: 1a0b 07bb f88e 93bd 36e9 953d bb0a 4e3c
00000010: d06b e03c dea0 6cbb 79ff 453c 164f 763d
00000020: 58ba db3d eb31 91bd a409 793d d8da 293d
00000030: dba2 9abc a467 36bd ff2d 3b3c 58d9 583d
00000040: 65aa 81bd 7542 0b3d 38ca a73d edd8 1ebd
00000050: c9eb c5bd 12d6 d53d b68c 503d 1485 af3d
00000060: 93e2 e03d 51d6 1cbb 72ea ef3d f011 11bc
00000070: 3dd0 eabd d935 d2bc 62d2 93bd e271 45bc
00000080: 867f 8f3d 1b60 a5bd 9e02 08bd 33ef f0bb
00000090: 14f7 313d f923 843d 6729 2c3d de18 00bd
000000a0: ebbe f83b b59b 443d b4bc f33d c6af 853d
000000b0: 5564 cabd 4659 4f3c fb9a df3d 10ba 0dbd
000000c0: d5b7 b23d 1a9d 8ebd 2c7a 7bbd 43a2 2fbb
000000d0: 16c8 c63d 332a 063d 701b 0abd 8c3e cb3b
000000e0: 3680 97bd a83b 21bd a25a 13bd e3ce c9bc
000000f0: 3e22 95bd 91b0 23bd fb42 033c b0f8 e2bc
00000100: db96 f83d 09b5 a0bd bd3e 91bd 27e3 273d
00000110: c6e7 7cbd 9fe3 73bd 3484 a63d 8f06 843d
00000120: 0a3f 51bd c317 b13d 5fac 99bd 81c6 723c
00000130: 4737 8cbd 807b 9fbc 57b1 713c aef0 ccbb
00000140: d4a2 53bc 9620 f3bc 52fb 7fbc e996 823c
00000150: fdf3 06bd 0a00 28bc bb64 76bd 3cbd 103d
00000160: 8828 33bd 232e 3a3d 2f51 c73d b214 aa3d
00000170: 0fbd 2cbc d101 5bbd f11b 4a3d 1b1d 95bd
00000180: 3830 a03d 5b8c 12bd d43b 633d bf8b c63d
00000190: d832 843d c2e1 b4bb faf2 59bb f1d2 47bc
000001a0: 364e e3bc 1650 a03c b299 d03c d38c 453d
000001b0: 725e 623d 3d9f 16bd 6e9b cdbc 550d 55bd
000001c0: e4b0 803d 305f 2e3c f2bf c53d 5110 063d
000001d0: 285d 1e3c d792 9bbd bbe0 263d 3f72 b63c
000001e0: 5a79 7e3d 6ac3 b83d 9445 043d 5b17 9abc
000001f0: 6e6b 913d 0389 4c3c 2d94 093e cd6f 843d
00000200: c92b 3f3d cf30 1b3c 5523 403d 09c7 063d
00000210: 898d 70bd 5b6e d1bb b68f 6c3d c128 43bd
00000220: 27c9 9b3d d68b 72bc b883 12bb f589 f33d
00000230: 57a9 27bd 537c 7c3d 3119 893c c92d 573d
00000240: dccc 5cbd 0ff5 183d 13e6 75bd cd4c e33c
00000250: 971c d63c 0998 85bb 14bb 833d 07da 6f3e
00000260: bd64 dc3d 8e71 fc3c 254c e93d d3a7 3bbd
00000270: 1273 bcbc a82b b63c b635 70bb 3a95 bbbd
00000280: c19f 2d3d 7679 183b 6139 da3b dd80 cd3d
00000290: 2088 533c cb09 553d 029d 813d 5d73 343c
000002a0: 4a2c 223d 4845 8cbd 7ce6 093b 5712 9e3c
000002b0: 2bcb 813c fb67 0cbd c4c1 843c ac8b 383e
000002c0: 851d 653d c447 b6bb 00aa 043d cad1 9bbd
000002d0: f80e 453c 4892 bcbd 2913 9d3c 8841 0a3e
000002e0: f276 c1bd 7438 773b 4285 5a39 6b62 a2bd
000002f0: 2e2e cfbc c5c9 833d 1743 e13d 8b7e ae3c
00000300: d582 7fbd dc31 67bd 7400 773d c436 b43c
00000310: b4b5 69bd e4f8 10bc cf95 f53c f6f0 ed3d
00000320: d00c 97bd aac4 113d 97c8 6fbd 6e6a 73bd
00000330: 5045 81bd d0e9 203c 90c5 adbc 8616 3ebd
00000340: 6fc9 25bd b6cf 89bd 1671 e7bc 1036 04bb
00000350: 63a5 cc3d 460c a73c 68cd 1d3c f5f1 3abd
00000360: d6d9 d2bd 1a45 df3d f6ae 9f3c db2d 133e
00000370: 86fc e5bd fe7e cebd 4344 49bd 5ee6 b33c
00000380: 0ff0 b63d ac6f 8ebd c15a 26bd 7017 b13d
00000390: 0bdf 22bc 846e 99bd 6038 803b c472 023d
000003a0: eb6b 5f3d 58bf b7bd 69f8 8dbd 94d9 cf3d
000003b0: fda0 e8bc dee3 d5bd 07a1 b5bc 7329 43bd
000003c0: 3208 353d a183 8dbd e109 fcbc e422 403d
000003d0: f78b e0bc c146 8a3d 801e d9bd ad0f 4c3d
000003e0: b898 e73b 6edc 1abd c90b 8e3d 8a99 fbbb
000003f0: 7d54 a2bc 1e84 123d e799 2c3c bea0 48bd
-0.0020605982 -0.072050035 0.07319872 0.0125758005 0.027395159 -0.0036106627 0.012084835 0.060134016
0.107289016 -0.07089599 0.06080021 0.04146847 -0.018876484 -0.044532433 0.011424541 0.05294165
-0.06331328 0.033998925 0.08192867 -0.038781095 -0.09664113 0.10441221 0.050915442 0.085703045
0.109807156 -0.0023931453 0.11714639 -0.008854374 -0.114654996 -0.025660442 -0.07217862 -0.012051078
0.07006745 -0.08074971 -0.03320562 -0.0073527335 0.043448523 0.06452174 0.04203167 -0.031273715
0.0075911186 0.048000056 0.11901227 0.06527667 -0.09882418 0.012655562 0.10918232 -0.03460127
0.087264694 -0.069635585 -0.06139581 -0.0026799596 0.09706132 0.032755088 -0.033717573 0.0062025245
-0.07397501 -0.039363533 -0.035975106 -0.024634784 -0.07281922 -0.03996331 0.008011575 -0.027706474
0.121381484 -0.0784703 -0.070920445 0.040988114 -0.061744474 -0.05954325 0.081306845 0.064465635
-0.05108551 0.0864711 -0.0750358 0.014817835 -0.06846481 -0.01946807 0.014751754 -0.006254277
-0.012917239 -0.029678624 -0.015623884 0.0159411 -0.03294753 -0.010253916 -0.060154658 0.035336718
-0.043739825 0.045454156 0.097322814 0.083047286 -0.010543122 -0.05346853 0.049343053 -0.07280942
0.07821697 -0.035778385 0.05547698 0.09694623 0.0645501 -0.0055200765 -0.0033256398 -0.012196288
-0.027747255 0.019569438 0.025463913 0.048230004 0.05526585 -0.036772955 -0.025098529 -0.052014668
0.06283739 0.010642812 0.09655751 0.032730404 0.009665765 -0.07596367 0.040741663 0.022271274
0.06212745 0.09021647 0.032292917 -0.018809965 0.07100569 0.012483838 0.13435431 0.06466637
0.046672616 0.009472086 0.046908695 0.03290466 -0.05872873 -0.006391329 0.05775424 -0.047646288
0.07606726 -0.014803847 -0.0022356343 0.118915476 -0.04093298 0.061642002 0.016735645 0.0525339
-0.053906307 0.03734308 -0.06003387 0.027746582 0.02613668 -0.004076962 0.06432167 0.23423015
0.10761402 0.030815866 0.113914765 -0.045814347 -0.023004089 0.022237614 -0.0036653108 -0.09159322
0.04238868 0.0023265756 0.006659672 0.10034344 0.012910873 0.052011292 0.06328775 0.011013833
0.03959302 -0.06849152 0.002104192 0.019295854 0.015843948 -0.03427885 0.016205676 0.1802203
0.055936355 -0.0055627543 0.032388687 -0.076083735 0.012027495 -0.092075884 0.019174175 0.1350156
-0.09446515 0.0037722858 0.00020839743 -0.07928928 -0.025290575 0.06434969 0.109991245 0.021300575
-0.06238063 -0.056444034 0.060303167 0.02199877 -0.05705805 -0.008848403 0.02997866 0.11618225
-0.07375491 0.035587944 -0.058540907 -0.05942767 -0.063120484 0.00982137 -0.02121237 -0.0464082
-0.040475305 -0.06729071 -0.028252166 -0.0020173825 0.099924825 0.020391595 0.009631492 -0.045640904
-0.10295455 0.10901852 0.019492608 0.14372961 -0.11229806 -0.100828156 -0.049137365 0.021960434
0.08932506 -0.069548935 -0.040613893 0.086470485 -0.009940873 -0.07491782 0.0039129704 0.03184773
0.054546278 -0.08972043 -0.06932146 0.101489216 -0.028397078 -0.10443853 -0.02217151 -0.04764695
0.04419727 -0.06909872 -0.03076643 0.046908274 -0.02741049 0.067517765 -0.106015205 0.049819637
0.007067766 -0.037807874 0.069358416 -0.0076782154 -0.019815678 0.035770528 0.01053474 -0.04898142

lstm.bias_hh_l0 f4 [512]
00000000: ebc0 923d 017d 613d cd24 f73c fbec 00bd
00000010: 0e80 f53c eb04 9c3d 9afa 47bb 6f8e 2f3d
00000020: d2b4 2a3e 6529 17bd 971d 813d e498 0c3d
00000030: 5d5a 54bd 38f7 a3bd d176 ddbd ba85 5abc
00000040: 66b2 42bd 4d0b 5fbd abf6 b1bd ee1b 963d
00000050: dbe9 a9bd 0eb1 243d a340 0b3d fd35 1b3e
00000060: 39ae 233e 7f15 55bd 1eb4 9c3d caca cabc
00000070: 85fb cfbc 2b2e 213c ae5e 65bd 168e b3bd
00000080: 8a8d a73d b276 9bbb 6233 eabd 0893 e23b
00000090: dbae 823b 2e94 6bbd 87ce 8ebb ec01 523d
000000a0: ab6d 03bd 4143 a1bd 8c41 0b3c cde3 8a3d
000000b0: 82ae 7e3d 4151 b43d 7a65 063c 48f0 8a3d
000000c0: a67c e23d f6ae 41bd 44f9 06be e6fe b83d
000000d0: 3dfb ae3c d0ed e0bc b891 ea3b bd3b 0fbd
000000e0: 6066 fbbd 3303 60bd ee2b f9bb b02b 1f3c
000000f0: a9ff 16bb 18e6 a1bd c506 e03d d6b6 723d
00000100: 157e 7f3d 7ef9 423d 0a41 07bd 37a8 aebc
00000110: 572f 58bd 6f8f 2abd 0896 993c 89ab 163c
00000120: 7727 a93b 6444 983c f1e9 6e3c 898a 0b3d
00000130: f3b1 343d adf5 473d 8264 49bd 612e ca3d
00000140: 2b46 6bbd 7bc8 523d d443 f73d 9c92 8cbd
00000150: 563e 7a3c f72a c63d 0261 993d bca9 823c
00000160: 2948 283d 9df0 d4bc 996e 803d 7238 353d
00000170: e879 8bbd 2037 70bd 6af3 273d b222 973d
00000180: e8af d13d 729b 79bd 59aa 473d 3348 393d
00000190: 4666 90bc f07f 45bd 52a5 8f3d 4877 893d
000001a0: d8e1 d93d e271 4e3d e68f 96bd 1e5a bd3c
000001b0: d7f6 fc3b 0122 35bc edc4 ffbc 85b5 3cbd
000001c0: 1825 8bbd 47b1 4f3d 698e ba3d d0cf 423d
000001d0: 57c2 c4bd 578e 89bd e809 d13a 90b1 77bd
000001e0: 9099 643d 8812 183e afdb 613c 8308 2c3d
000001f0: c9f2 0f3d 396e 513c e1a6 ab3d 17ef 93bd
00000200: 5d1a 333d d6dd bf3d 95d2 eb3c c0a0 33bd
00000210: 6063 813b 7060 9abd 1cee 373b f6fd cabd
00000220: 1980 07bd 836c 4bbd 1e59 2dbd b3ef 4e3d
00000230: 47dc 303d 18ae ca3d 4322 cd3d db24 3abd
00000240: 803c 60bd 88ab f83d 3034 9b3c 0c88 babd
00000250: a53f 9ebd 8480 6c3c 8de0 64bd 1473 333e
00000260: 44e2 e23c 86c1 0d3d 3290 593c 7fe0 11bd
00000270: a00a 6a3c 9204 a7bd 526f 973d 0b1e c0bd
00000280: 509d 043d b8a1 903a efd3 cfbd 2557 ff3c
00000290: 1b3e 8cbd 9c0c a83d 8f0c 92bd 9ac7 023d
000002a0: 8f0b 643b 695d 26bd 7112 c83d 667e 4dbd
000002b0: 67ae b5bd 9b0d 103c c706 64bd d840 3e3e
000002c0: e767 0a3c 4180 3fbd 5af7 38bd 47f1 a1bd
000002d0: c4e4 8cbd 94f9 0dbd 6593 203d 21a5 143e
000002e0: 2378 5fbd 8efb 3fbd 8bf9 18bc f810 db3a
000002f0: c9f2 c13d a49e 703d 486e d33d 66df afbd
00000300: dd12 92bd b832 423d 4e9d d2bc f5cf f33d
00000310: 2f5d c53b 19f8 92bd 3079 efbd a0c0 2a3d
00000320: cc0a c3bd 6ae4 a73d 8c3c 053d a3fe abbc
00000330: 3724 a53c b368 b53d 41de 013d 9a03 20bd
00000340: 5027 80bc 2c40 f93c d16d 58bd 2711 803d
00000350: 23f1 86bd b187 073d 6e39 0ebc ab19 48bd
00000360: 76f8 71bd 74ab fa3c 1c23 b33c 8df8 ad3d
00000370: dad9 0cbd 94fd 2dbd a8fa d33c 16fd a7bb
00000380: 76df 1c3c 222c 393c 0234 563b de5a 803d
00000390: 54ea 313d ecc1 a2bd de52 9a3d 6021 cabd
000003a0: 235d 19bd 8d0e c2bc d500 28bc cf24 ba3d
000003b0: 01bc 08bd aa65 f73c 1183 823d b5ba 02bd
000003c0: 9068 b53d 9cb9 e2bb 7dc4 9fbc 4d49 7abb
000003d0: ef90 deb9 c961 993d a8ad e1bd 3dd5 89bd
000003e0: 01b4 06bb a139 3abc da2b acbd 6f23 cb3d
000003f0: 6433 09bd 5b20 e33c 1fb9 27bd 5a2a a53d
0.071657024 0.055050854 0.030168915 -0.031476002 0.029968288 0.076181255 -0.003051436 0.042860445
0.1667054 -0.03690471 0.06304472 0.034325495 -0.05184399 -0.080061376 -0.10813678 -0.013337547
-0.047533415 -0.054454137 -0.08689626 0.07329546 -0.082965575 0.040207915 0.03399719 0.15157314
0.1598443 -0.052022453 0.07651542 -0.0247549 -0.025388489 0.009837667 -0.055998497 -0.08767335
0.08181293 -0.004744374 -0.11435582 0.0069145 0.0039881296 -0.057514362 -0.004358116 0.051271364
-0.03208701 -0.07874156 0.008499514 0.06781731 0.062178142 0.088045605 0.008202905 0.06784111
0.11058931 -0.047285996 -0.13181025 0.09032993 0.021360034 -0.027457148 0.0071584843 -0.03496908
-0.12275386 -0.05469055 -0.007604114 0.009715006 -0.002304057 -0.07905215 0.10938791 0.059256397
0.0623761 0.047601216 -0.03302101 -0.021320445 -0.05277952 -0.041640695 0.018748298 0.009196171
0.0051621753 0.018587299 0.014582143 0.034067664 0.044115018 0.04881828 -0.049168117 0.09872127
-0.057439964 0.051460724 0.12073484 -0.06863901 0.015273651 0.09676164 0.07489206 0.015950076
0.041084442 -0.02599364 0.06271095 0.044243284 -0.06810361 -0.05864632 0.041003622 0.073796645
0.102386296 -0.06093926 0.04874644 0.04523487 -0.017626893 -0.048217714 0.07013954 0.06712204
0.106387794 0.050401576 -0.07351665 0.02311426 0.0077198553 -0.01105547 -0.031221831 -0.046071548
-0.067941844 0.050706174 0.09109194 0.047561467 -0.0960738 -0.06716602 0.0015948387 -0.06047207
0.05581051 0.14850819 0.013785287 0.042000305 0.035143647 0.012782627 0.08381439 -0.07223337
0.043726314 0.09368484 0.028786937 -0.043854475 0.003948614 -0.07537925 0.0028065508 -0.099117205
-0.033081148 -0.04966403 -0.042321317 0.050521564 0.043178823 0.09896487 0.100163005 -0.045445304
-0.054745197 0.12142092 0.018945783 -0.0910798 -0.07726983 0.014434937 -0.05587821 0.17524368
0.027695782 0.034608386 0.013279008 -0.035614487 0.01428476 -0.081551686 0.073942795 -0.0938073
0.032376587 0.0011034524 -0.10147845 0.031169483 -0.06847783 0.0820553 -0.071313016 0.031928636
0.0034796929 -0.040616427 0.097691424 -0.05016937 -0.08871155 0.008792306 -0.055670526 0.18579423
0.008447624 -0.04675317 -0.045157768 -0.07907348 -0.06879571 -0.034661844 0.039203066 0.14516117
-0.05455793 -0.04687076 -0.009336839 0.0016713431 0.09470136 0.05874504 0.10323769 -0.08587532
-0.07132504 0.04741165 -0.025709774 0.11904899 0.0060230712 -0.07176227 -0.116930366 0.041687608
-0.09523544 0.081978634 0.032528445 -0.020995444 0.02015887 0.088578604 0.0317061 -0.039065935
-0.015643746 0.030426107 -0.052839104 0.062532715 -0.06588962 0.03308839 -0.0086806845 -0.048852604
-0.05907484 0.030599333 0.021867327 0.08494673 -0.034387447 -0.04247816 0.025876358 -0.0051266057
0.009574762 0.011302026 0.0032684808 0.062673315 0.043436363 -0.07947144 0.07535337 -0.09869647
-0.037442338 -0.023688579 -0.010254105 0.09089052 -0.03338242 0.030199844 0.06372655 -0.03191634
0.08857834 -0.006919099 -0.019502873 -0.0038190663 -0.00042451124 0.07489354 -0.110194504 -0.06730125
-0.0020554068 -0.011366279 -0.084068015 0.09918868 -0.033496276 0.02772539 -0.04094803 0.080647185

linear.weight f4 [3, 128]
00000000: 92ed 42be f390 88bb ad41 10be 1eaf 433d
00000010: 9afb fe3d 1b83 023e 8550 4dbe 3530 16be
00000020: 1857 93be c5b0 043e 9638 893e 0144 a8bd
00000030: 12ad 323e 15e1 763d 0447 1ebd 7187 2fbe
00000040: beb6 4c3d a4b4 d93d 4b63 7b3d ded1 d8bd
00000050: 920a a23d a12e 79be 5a2c 253e 7cf6 da3d
00000060: d443 b2bd b030 1abe 508a 373e 6973 cebd
00000070: f29f 073d 9df8 cc3d 286e fe3d 8fac 043e
00000080: 1ad0 47be f82f b73c 7631 303d 79fc 4ebe
00000090: 5411 acbd d686 e13d f1ec 02be ca39 96be
000000a0: 6668 253e 9e83 77bc 4e3b 9bbd 0cfd 30be
000000b0: 7912 1b3e c1e6 053e 102e 04be bd30 0b3e
000000c0: 28cf 23be 9628 b4bc 00b8 62bd 1077 383e
000000d0: 0c17 953d 22d8 da3d 7097 34be 9f2a 0c3d
000000e0: c832 e53d 58f5 1c3d cc78 efbc da3a 93bd
000000f0: dc9a 273e 5d96 1cbe 518d 173d f7b8 13be
00000100: 6a10 27be 2f75 053e b09c 6fbd 5cbc 423e
00000110: 4b97 debd 8a23 7a3e 5885 0bbe 51e3 473e
00000120: 31f7 8abd 515f 583e 903a 673d 3d6f 393e
00000130: fa92 603e db3c 693e 4bf8 77bc 9262 0f3e
00000140: 7eea 093e 4ecf ed3c bbed 013e de82 03bd
00000150: d30f 7d3d befa 323d 4ac1 133e 0c95 bf3d
00000160: b9bc 3bbd 1765 ec3d 10c2 39be 1b69 693e
00000170: de5c d8bd f264 ee3d 6065 bdbc 5a2b 533d
00000180: 2548 523d 26a3 42be 7ef9 c5bd b1fa 3c3e
00000190: 2492 a1bd d95f aabd 517a 2d3d 55a0 c43d
000001a0: 07d7 753e e727 46be af49 173e bf6b a23d
000001b0: 8798 173d 5318 063e 6a7c 17be 932c adbd
000001c0: 4634 143e 23ed d6bd 8ce3 cb3b 4bd1 39be
000001d0: be69 91bd d88f 5339 6ae9 263e eb72 713e
000001e0: 8553 f5bc a24b 573e 3686 b1bd e5ac 693e
000001f0: d98c e73d b395 af3d 760c 753e 6170 38bd
00000200: fcb2 e1bd 57af b3bd b96e 103d eac7 d13d
00000210: d21a 103d c407 c63d 1648 b7bb ff92 e93c
00000220: b2be de3c 23e0 1bbe d291 9ebd e53d a7be
00000230: 2dc7 07be bf63 413c 13f5 93bd 75e5 7ebd
00000240: d650 253e d3b8 83be a5f9 d7bd 2564 27bd
00000250: 670b 0bbe 680c e2bd 4b28 cbbd 0009 47be
00000260: f190 1d3e e808 dabd d8a4 903d f1e4 95b9
00000270: cc0f 0f3e 7005 afbb c874 8c3d ba4c 223e
00000280: d47a 1e3e 72f4 aa3c a73a c4bd c959 efbd
00000290: 6cd0 ecbd 2c34 14be fe6c a2bd 344d 0a3e
000002a0: a5f4 203e 9c99 f5bd bd0a 093e 1b4e c3bd
000002b0: 4880 c4bd 3213 fe3d 9986 9abd 77ab 60be
000002c0: 02c5 593c a2c2 083e 63d6 713e 978c 8e3d
000002d0: 28ae d73d 4ed0 e03d 03de 4dbe 567b 84bd
000002e0: 666b e9bb 303c 8c3d c839 253e b901 4dbd
000002f0: a3af 833c 8f75 193e 3293 cbbd 681e d6bd
00000300: d20f 80bd aad6 abbb 887b 37be e337 c0ba
00000310: 1d22 56bd 1abb 563e e279 e0bc ae9f f13d
00000320: f8e5 e13c 360d 783e c31c 55be a90d 233e
00000330: db2e 08bd 0323 3f3d 4a47 43be 5a8e f13c
00000340: 6565 dc3d b57f 0f3e 8b5e 813d 0d06 dd3d
00000350: 11ab 95bc 6c8f 3c3e ce45 b5bc 88fb 8b3e
00000360: 5c78 18bd 098b 6abc a2e8 033d 9e51 763e
00000370: 0539 92bc 8232 1d3e c679 7f3d 4bdc a53d
00000380: a292 b13d d6cc 27be cbe1 febd 2e27 013e
00000390: 3f2c 06be 5013 a8bd 2a3e afbd cb3f 0e3e
000003a0: 803b 29bc b1f2 19be 7d29 aabc b63c 5c3e
000003b0: 3109 23bd 3101 e23d 863e 9abd 9095 6f3e
000003c0: d508 1a3e 0add f0bd b56b b33c 14da 3cbd
000003d0: e8ba 24be 0d03 12bd 3f4a 933d d9b1 08bd
000003e0: 58c6 2b3e 7b26 ef3d eb5a d0bd bc60 babd
000003f0: da06 403e ea1e 533e fa75 103e 240f f7bd
-0.19035938 -0.00416767 -0.14087553 0.047774427 0.12450333 0.12745325 -0.20050247 -0.14666827
-0.28777385 0.12958057 0.26800984 -0.08216096 0.17448834 0.06027325 -0.038641945 -0.1714151
0.049978964 0.106301576 0.06137399 -0.10586904 0.079121724 -0.24334194 0.161302 0.106915444
-0.087043434 -0.15057635 0.17923856 -0.100806065 0.03311152 0.10008357 0.124233544 0.12956451
-0.19512978 0.02236174 0.04301592 -0.20213498 -0.084017426 0.11012046 -0.12785698 -0.29340965
0.16153106 -0.015107064 -0.07579671 -0.1728403 0.15143766 0.13076307 -0.12908196 0.13592811
-0.15996993 -0.02199201 -0.055351257 0.18014169 0.072797865 0.10685755 -0.17635894 0.034220334
0.111913264 0.038319916 -0.029232405 -0.071889594 0.16367668 -0.15291734 0.037000004 -0.14426027
-0.16314855 0.13032983 -0.05849904 0.19017166 -0.108687006 0.2442762 -0.13625085 0.19520308
-0.06785429 0.2113011 0.056452334 0.1810884 0.21931067 0.22777121 -0.015134881 0.14002445
0.13468358 0.029029515 0.12688343 -0.032107227 0.06178267 0.043696158 0.14429203 0.093546
-0.045834277 0.11542719 -0.18140435 0.22794001 -0.10564588 0.116403475 -0.023119628 0.051555015
0.051338334 -0.19007549 -0.096667275 0.18455006 -0.07889202 -0.08319063 0.04235298 0.096008934
0.24007808 -0.19351159 0.14774202 0.07930707 0.037010696 0.13095216 -0.14793554 -0.084557675
0.14473066 -0.10494449 0.006222194 -0.18146245 -0.07100247 0.00020176114 0.16299978 0.23578994
-0.029947052 0.21024945 -0.08668177 0.2281986 0.113061614 0.08573475 0.23930535 -0.045029048
-0.11020467 -0.08773678 0.035261843 0.10243209 0.035181828 0.0966945 -0.00559331 0.028512476
0.02719054 -0.1522222 -0.07742657 -0.3266441 -0.13259573 0.0118035665 -0.072244786 -0.062230546
0.16144118 -0.25726947 -0.10545663 -0.04086699 -0.13578568 -0.110375226 -0.09919795 -0.19437027
0.15387322 -0.1064623 0.070626915 -0.0002859007 0.1397087 -0.0053412244 0.06858212 0.15849581
0.15476543 0.020868514 -0.095814995 -0.11687047 -0.11563191 -0.14473027 -0.07930945 0.13506013
0.15718324 -0.11992189 0.13383003 -0.09536382 -0.0959478 0.12406005 -0.07545204 -0.21940409
0.013291599 0.13355497 0.23616938 0.06960409 0.105312645 0.10977231 -0.20104222 -0.06468837
-0.0071233986 0.06847417 0.16135323 -0.05005047 0.016074961 0.14986251 -0.09940185 -0.10455018
-0.062530175 -0.005244096 -0.17918217 -0.0014665093 -0.052278627 0.20969811 -0.027401868 0.117980346
0.027575478 0.2422379 -0.20811753 0.1592318 -0.03324781 0.04666425 -0.19070163 0.029486824
0.10761527 0.1401356 0.06316861 0.1079217 -0.018270047 0.18414086 -0.022128012 0.2734034
-0.03722416 -0.014315375 0.032204278 0.24054572 -0.017849455 0.15351298 0.06237199 0.08098658
0.08670546 -0.16386732 -0.1244541 0.12612602 -0.13102816 -0.082068086 -0.08556779 0.13891523
-0.010329127 -0.15033986 -0.020771736 0.21507534 -0.039803687 0.110353835 -0.07531457 0.23396897
0.15042432 -0.1176091 0.021901945 -0.046106413 -0.16086924 -0.03564744 0.07191896 -0.033372734
0.16774881 0.116772614 -0.10173591 -0.09100482 0.18752614 0.20617262 0.14107504 -0.12063435

linear.bias f4 [3]
00000000: 5577 05be 32f3 603c b8f6 103d
-0.13033803 0.013729857 0.03539154
